…
ty', do_eval=False, epochs=200, gpu_id='0', hidden_act='gelu', hidden_dropout_prob=0.5, hidden_size=64, initializer_range=0.02, item_size=12102, lmd=0.1, lmd_sem=0.1, load_model=None, log_freq=1, lr=0.001, max_seq_length=50, model_type='MSTRec', no_cuda=False, num_attention_heads=2, num_hidden_layers=2, num_items=10, num_users=22364, num_workers=4, output_dir='output/', patience=10, same_target_path='./data/Beauty_same_target.npy', seed=43, sim='dot', ssl='us_x', tau=1.0, topK=3, train_name='MSTRec_Beauty', variance=5, weight_decay=0.0)
2024-12-03 16:04:09,259 - MSTRecModel(
  (item_embeddings): Embedding(12102, 64, padding_idx=0)
  (position_embeddings): Embedding(50, 64)
  (LayerNorm): LayerNorm()
  (dropout): Dropout(p=0.5, inplace=False)
  (item_encoder): MSTEncoder(
    (blocks): ModuleList(
      (0): MSTRecBlock(
        (layer): MSTRecLayer(
          (multi_head_attention): MultiHeadAttention(
            (query): Linear(in_features=64, out_features=64, bias=True)
            (key): Linear(in_features=64, out_features=64, bias=True)
            (value): Linear(in_features=64, out_features=64, bias=True)
            (softmax): Softmax(dim=-1)
            (attn_dropout): Dropout(p=0.5, inplace=False)
            (dense): Linear(in_features=64, out_features=64, bias=True)
            (LayerNorm): LayerNorm((64,), eps=1e-12, elementwise_affine=True)
            (out_dropout): Dropout(p=0.5, inplace=False)
          )
        )
        (feed_forward): FeedForward(
          (dense_1): Linear(in_features=64, out_features=256, bias=True)
          (dense_2): Linear(in_features=256, out_features=64, bias=True)
          (LayerNorm): LayerNorm()
          (dropout): Dropout(p=0.5, inplace=False)
        )
      )
      (1): MSTRecBlock(
        (layer): MSTRecLayer(
          (multi_head_attention): MultiHeadAttention(
            (query): Linear(in_features=64, out_features=64, bias=True)
            (key): Linear(in_features=64, out_features=64, bias=True)
            (value): Linear(in_features=64, out_features=64, bias=True)
            (softmax): Softmax(dim=-1)
            (attn_dropout): Dropout(p=0.5, inplace=False)
            (dense): Linear(in_features=64, out_features=64, bias=True)
            (LayerNorm): LayerNorm((64,), eps=1e-12, elementwise_affine=True)
            (out_dropout): Dropout(p=0.5, inplace=False)
          )
        )
        (feed_forward): FeedForward(
          (dense_1): Linear(in_features=64, out_features=256, bias=True)
          (dense_2): Linear(in_features=256, out_features=64, bias=True)
          (LayerNorm): LayerNorm()
          (dropout): Dropout(p=0.5, inplace=False)
        )
      )
    )
  )
  (aug_nce_fct): CrossEntropyLoss()
)
2024-12-03 16:04:10,590 - Total Parameters: 877824
2024-12-03 16:07:03,968 - {'epoch': 0, 'rec_loss': '9.6032'}
2024-12-03 16:07:10,971 - {'Epoch': 0, 'Recall@5': '0.0121', 'NDCG@5': '0.0072', 'Precision@5': '0.0024', 'Recall@10': '0.0213', 'NDCG@10': '0.0102', 'Precision@10': '0.0021', 'Recall@20': '0.0342', 'NDCG@20': '0.0134', 'Precision@20': '0.0017', 'MRR': '0.0077'}
…
