…
1M', do_eval=False, epochs=200, gpu_id='0', hidden_act='gelu', hidden_dropout_prob=0.1, hidden_size=64, initializer_range=0.02, item_size=3417, lmd=0.1, lmd_sem=0.1, load_model=None, log_freq=1, lr=0.0005, max_seq_length=50, model_type='MSTRec', no_cuda=False, num_attention_heads=4, num_hidden_layers=2, num_items=10, num_users=6041, num_workers=4, output_dir='output/', patience=10, same_target_path='./data/ML-1M_same_target.npy', seed=46, sim='dot', ssl='us_x', tau=1.0, scale_K=4, train_name='MSTRec_ML-1M', variance=5, weight_decay=0.0)
2024-12-06 19:29:42,119 - MSTRecModel(
  (item_embeddings): Embedding(3417, 64, padding_idx=0)
  (position_embeddings): Embedding(50, 64)
  (LayerNorm): LayerNorm()
  (dropout): Dropout(p=0.1, inplace=False)
  (item_encoder): MSTEncoder(
    (blocks): ModuleList(
      (0): MSTRecBlock(
        (layer): MSTRecLayer(
          (multi_head_attention): MultiHeadAttention(
            (query): Linear(in_features=64, out_features=64, bias=True)
            (key): Linear(in_features=64, out_features=64, bias=True)
            (value): Linear(in_features=64, out_features=64, bias=True)
            (softmax): Softmax(dim=-1)
            (attn_dropout): Dropout(p=0.5, inplace=False)
            (dense): Linear(in_features=64, out_features=64, bias=True)
            (LayerNorm): LayerNorm((64,), eps=1e-12, elementwise_affine=True)
            (out_dropout): Dropout(p=0.1, inplace=False)
          )
        )
        (feed_forward): FeedForward(
          (dense_1): Linear(in_features=64, out_features=256, bias=True)
          (dense_2): Linear(in_features=256, out_features=64, bias=True)
          (LayerNorm): LayerNorm()
          (dropout): Dropout(p=0.1, inplace=False)
        )
      )
      (1): MSTRecBlock(
        (layer): MSTRecLayer(
          (multi_head_attention): MultiHeadAttention(
            (query): Linear(in_features=64, out_features=64, bias=True)
            (key): Linear(in_features=64, out_features=64, bias=True)
            (value): Linear(in_features=64, out_features=64, bias=True)
            (softmax): Softmax(dim=-1)
            (attn_dropout): Dropout(p=0.5, inplace=False)
            (dense): Linear(in_features=64, out_features=64, bias=True)
            (LayerNorm): LayerNorm((64,), eps=1e-12, elementwise_affine=True)
            (out_dropout): Dropout(p=0.1, inplace=False)
          )
        )
        (feed_forward): FeedForward(
          (dense_1): Linear(in_features=64, out_features=256, bias=True)
          (dense_2): Linear(in_features=256, out_features=64, bias=True)
          (LayerNorm): LayerNorm()
          (dropout): Dropout(p=0.1, inplace=False)
        )
      )
    )
  )
  (aug_nce_fct): CrossEntropyLoss()
)
2024-12-06 19:29:43,511 - Total Parameters: 321984
2024-12-06 19:34:15,709 - {'epoch': 0, 'rec_loss': '8.1242'}
2024-12-06 19:34:18,182 - {'Epoch': 0, 'Recall@5': '0.0224', 'NDCG@5': '0.0140', 'Precision@5': '0.0045', 'Recall@10': '0.0419', 'NDCG@10': '0.0202', 'Precision@10': '0.0042', 'Recall@20': '0.0768', 'NDCG@20': '0.0290', 'Precision@20': '0.0038', 'MRR': '0.0162'}
…
